saving to [DIR]/
creating model resnet20_1w1a
model structure: ResNet(
  (conv1): BinarizeConv2d(3, 48, kernel_size=(3, 3), stride=(1, 1), padding=(1, 1), bias=False)
  (bn1): BatchNorm2d(48, eps=1e-05, momentum=0.1, affine=True, track_running_stats=True)
  (layer1): Sequential(
    (0): BasicBlock_1w1a(
      (conv1): BinarizeConv2d(48, 48, kernel_size=(3, 3), stride=(1, 1), padding=(1, 1), bias=False)
      (bn1): BatchNorm2d(48, eps=1e-05, momentum=0.1, affine=True, track_running_stats=True)
      (conv2): BinarizeConv2d(48, 48, kernel_size=(3, 3), stride=(1, 1), padding=(1, 1), bias=False)
      (bn2): BatchNorm2d(48, eps=1e-05, momentum=0.1, affine=True, track_running_stats=True)
      (shortcut): Sequential()
    )
    (1): BasicBlock_1w1a(
      (conv1): BinarizeConv2d(48, 48, kernel_size=(3, 3), stride=(1, 1), padding=(1, 1), bias=False)
      (bn1): BatchNorm2d(48, eps=1e-05, momentum=0.1, affine=True, track_running_stats=True)
      (conv2): BinarizeConv2d(48, 48, kernel_size=(3, 3), stride=(1, 1), padding=(1, 1), bias=False)
      (bn2): BatchNorm2d(48, eps=1e-05, momentum=0.1, affine=True, track_running_stats=True)
      (shortcut): Sequential()
    )
    (2): BasicBlock_1w1a(
      (conv1): BinarizeConv2d(48, 48, kernel_size=(3, 3), stride=(1, 1), padding=(1, 1), bias=False)
      (bn1): BatchNorm2d(48, eps=1e-05, momentum=0.1, affine=True, track_running_stats=True)
      (conv2): BinarizeConv2d(48, 48, kernel_size=(3, 3), stride=(1, 1), padding=(1, 1), bias=False)
      (bn2): BatchNorm2d(48, eps=1e-05, momentum=0.1, affine=True, track_running_stats=True)
      (shortcut): Sequential()
    )
  )
  (layer2): Sequential(
    (0): BasicBlock_1w1a(
      (conv1): BinarizeConv2d(48, 94, kernel_size=(3, 3), stride=(2, 2), padding=(1, 1), bias=False)
      (bn1): BatchNorm2d(94, eps=1e-05, momentum=0.1, affine=True, track_running_stats=True)
      (conv2): BinarizeConv2d(94, 94, kernel_size=(3, 3), stride=(1, 1), padding=(1, 1), bias=False)
      (bn2): BatchNorm2d(94, eps=1e-05, momentum=0.1, affine=True, track_running_stats=True)
      (shortcut): Sequential(
        (0): BinarizeConv2d(48, 94, kernel_size=(1, 1), stride=(2, 2), bias=False)
        (1): BatchNorm2d(94, eps=1e-05, momentum=0.1, affine=True, track_running_stats=True)
      )
    )
    (1): BasicBlock_1w1a(
      (conv1): BinarizeConv2d(94, 94, kernel_size=(3, 3), stride=(1, 1), padding=(1, 1), bias=False)
      (bn1): BatchNorm2d(94, eps=1e-05, momentum=0.1, affine=True, track_running_stats=True)
      (conv2): BinarizeConv2d(94, 94, kernel_size=(3, 3), stride=(1, 1), padding=(1, 1), bias=False)
      (bn2): BatchNorm2d(94, eps=1e-05, momentum=0.1, affine=True, track_running_stats=True)
      (shortcut): Sequential()
    )
    (2): BasicBlock_1w1a(
      (conv1): BinarizeConv2d(94, 94, kernel_size=(3, 3), stride=(1, 1), padding=(1, 1), bias=False)
      (bn1): BatchNorm2d(94, eps=1e-05, momentum=0.1, affine=True, track_running_stats=True)
      (conv2): BinarizeConv2d(94, 94, kernel_size=(3, 3), stride=(1, 1), padding=(1, 1), bias=False)
      (bn2): BatchNorm2d(94, eps=1e-05, momentum=0.1, affine=True, track_running_stats=True)
      (shortcut): Sequential()
    )
  )
  (layer3): Sequential(
    (0): BasicBlock_1w1a(
      (conv1): BinarizeConv2d(94, 186, kernel_size=(3, 3), stride=(2, 2), padding=(1, 1), bias=False)
      (bn1): BatchNorm2d(186, eps=1e-05, momentum=0.1, affine=True, track_running_stats=True)
      (conv2): BinarizeConv2d(186, 186, kernel_size=(3, 3), stride=(1, 1), padding=(1, 1), bias=False)
      (bn2): BatchNorm2d(186, eps=1e-05, momentum=0.1, affine=True, track_running_stats=True)
      (shortcut): Sequential(
        (0): BinarizeConv2d(94, 186, kernel_size=(1, 1), stride=(2, 2), bias=False)
        (1): BatchNorm2d(186, eps=1e-05, momentum=0.1, affine=True, track_running_stats=True)
      )
    )
    (1): BasicBlock_1w1a(
      (conv1): BinarizeConv2d(186, 186, kernel_size=(3, 3), stride=(1, 1), padding=(1, 1), bias=False)
      (bn1): BatchNorm2d(186, eps=1e-05, momentum=0.1, affine=True, track_running_stats=True)
      (conv2): BinarizeConv2d(186, 186, kernel_size=(3, 3), stride=(1, 1), padding=(1, 1), bias=False)
      (bn2): BatchNorm2d(186, eps=1e-05, momentum=0.1, affine=True, track_running_stats=True)
      (shortcut): Sequential()
    )
    (2): BasicBlock_1w1a(
      (conv1): BinarizeConv2d(186, 186, kernel_size=(3, 3), stride=(1, 1), padding=(1, 1), bias=False)
      (bn1): BatchNorm2d(186, eps=1e-05, momentum=0.1, affine=True, track_running_stats=True)
      (conv2): BinarizeConv2d(186, 186, kernel_size=(3, 3), stride=(1, 1), padding=(1, 1), bias=False)
      (bn2): BatchNorm2d(186, eps=1e-05, momentum=0.1, affine=True, track_running_stats=True)
      (shortcut): Sequential()
    )
  )
  (bn2): BatchNorm1d(186, eps=1e-05, momentum=0.1, affine=True, track_running_stats=True)
  (linear): bilinear(in_features=186, out_features=10, bias=True)
)
number of parameters: 2311559
Files already downloaded and verified
Files already downloaded and verified
criterion: CrossEntropyLoss()
scheduler: <torch.optim.lr_scheduler.CosineAnnealingLR object at 0x7f6dc61b2d30>
EVALUATING - Epoch: [0][0/79]	Time 0.700 (0.700)	Data 0.289 (0.289)	Loss 2.3095 (2.3095)	Prec@1 7.031 (7.031)	Prec@5 43.750 (43.750)
…
